models/hybrid_gnn.pt (torch, 481826 bytes, 17 tensors)

conv1.nn.weight f4 [128, 9]
0.1875632 0.23377475 0.201839 -0.17377552 0.14041902 0.25165161 0.10928339 -0.3292308
0.2826637 0.14242256 0.078075856 -0.3260746 0.25832784 -0.13435566 0.25876716 -0.20323604
0.10402586 -0.2836279 -0.05462903 -0.15178868 0.2074693 0.035248104 0.27212057 0.27043965
0.084932394 -0.16580033 -0.16270617 -0.1361486 -0.27472126 -0.031121494 -0.1678405 0.22731678
-0.045646936 0.23197743 -0.17360573 -0.37252018 0.25987425 -0.03588441 0.021117847 -0.2803864
-0.27518526 0.18692997 0.032457653 -0.31834698 -0.083948106 -0.16516373 0.049952894 -0.025396366
0.09768507 0.19686812 0.26723245 -0.08979541 -0.37965783 0.23760512 -0.010997549 -0.13795507
0.3421567 -0.21624556 0.06007467 0.06584296 0.27862597 -0.2731053 -0.1745436 0.2921705
-0.008002996 -0.16126339 -0.21966188 -0.15594208 0.20248875 0.1119085 -0.13644643 -0.108870134
0.20073159 -0.080921024 -0.12719968 -0.17716622 0.28788325 0.06514785 0.27804777 -0.20061836
0.19686173 0.08961064 -0.19923878 0.0041782507 -0.02935782 -0.16793501 -0.13841102 0.031788107
0.028333228 -0.35653 0.21422467 0.24842992 0.3414407 -0.32216558 -0.103347905 -0.28157395
0.014141656 0.29118788 0.12018083 -0.25351906 -0.1978517 -0.055827152 -0.028282344 -0.07033863
-0.27330506 0.13158947 0.25608715 0.2888615 -0.1767495 0.1309224 -0.14166097 0.21450819
0.19384249 -0.12597144 0.3318519 -0.068955116 -0.3680318 0.2311 -0.040195584 0.31493333
-0.27139676 0.17800224 0.07820049 -0.15079273 -0.2400396 -0.07814475 -0.18827146 0.035104603
-0.042937044 0.2556829 -0.33355924 0.1531665 -0.16178504 0.013360875 0.2701937 0.15842049
0.25663856 0.07860361 -0.24137367 0.27196282 -0.20460296 -0.1292763 0.40448967 0.10479467
0.0818455 0.29600826 -0.3276886 0.123874255 0.27369288 0.20069292 -0.028101794 0.1786192
-0.033902936 -0.10231003 0.09876892 -0.2905 0.22555153 -0.019831639 0.18625358 -0.16935056
-0.37820446 0.35834253 0.06202729 0.18146732 0.058424395 0.061349057 0.3570905 0.29354063
-0.19601694 -0.38665286 -0.2147679 0.07337036 0.21487525 0.041274056 -0.03847068 0.09572064
-0.30943614 0.069022745 -0.17210698 -0.3097086 -0.23313232 -0.13656005 -0.31058556 0.25195548
-0.30571997 -0.025549054 0.06102606 -0.3830174 0.13675979 0.13682494 0.15357503 -0.30691677
-0.020070696 0.3450528 -0.22359228 -0.11339604 0.08633165 -0.13970385 -0.27571484 0.2830719
-0.018491203 0.27753142 -0.41784006 -0.1351972 0.27062017 0.29353577 0.3173037 -0.22666109
0.21155915 -0.19718498 -0.16865478 0.06959857 -0.3268977 0.28153202 0.34371966 0.22201364
0.19892722 -0.17566407 -0.19955425 0.12759982 0.011255993 -0.06260523 -0.13391577 -0.20584391
0.09328277 0.08162683 -0.1951356 -0.12539694 0.2474424 -0.44094074 0.11137557 -0.3220111
-0.109510124 0.08651419 -0.13527977 -0.2944718 0.33860618 0.19678167 0.014223008 0.09584656
-0.07599731 -0.2729708 -0.40239036 0.3123711 0.015948504 -0.21039501 -0.23850743 0.3957073
-0.30319762 0.020992694 -0.059611905 0.16858694 0.11850715 -0.3099035 -0.059300933 -0.19532438
00000000: 9110 403e a662 6f3e e2ae 4e3e 36f2 31be
00000010: 01ca 0f3e 7bd8 803e f8cf df3d f090 a8be
00000020: 4cb9 903e 38d7 113e 3ce6 9f3d 40f3 a6be
00000030: 8c43 843e 8894 09be 217d 843e 1c1d 50be
00000040: 830b d53d ad37 91be b1c2 5fbd 7e6e 1bbe
00000050: d572 543e 5160 103d 6353 8b3e 1177 8a3e
00000060: 09f1 ad3d 90c7 29be 729c 26be 8a6a 0bbe
00000070: 44a8 8cbe 81f2 febc 61de 2bbe bbc5 683e
00000080: 48f8 3abd 7e8b 6d3e b3c5 31be f7ba bebe
00000090: 3d0e 853e 88fb 12bd 56ff ac3c ce8e 8fbe
000000a0: 15e5 8cbe 926a 3f3e 51f2 043d 60fe a2be
000000b0: fcec abbd ae20 29be 689b 4c3d 0a0c d0bc
000000c0: 1c0f c83d cc97 493e b1d2 883e a8e6 b7bd
000000d0: 8362 c2be c24e 733e 102f 34bc 1844 0dbe
000000e0: 2a2f af3e 7a6f 5dbe db10 763d acd8 863d
000000f0: 10a8 8e3e 75d4 8bbe 8fbb 32be 5f97 953e
00000100: 001f 03bc 3b22 25be 0bef 60be 48af 1fbe
00000110: 3659 4f3e 4930 e53d 9db8 0bbe 4ef7 debd
00000120: 958c 4d3e ecb9 a5bd a240 02be 106b 35be
00000130: 6f65 933e 3c6c 853d 475c 8e3e e66e 4dbe
00000140: 1f96 493e c985 b73d 4005 4cbe b5e9 883b
00000150: d07f f0bc 28f7 2bbe 9ebb 0dbe 3f34 023d
00000160: 161b e83c 1a8b b6be b65d 5b3e 6a64 7e3e
00000170: 51d1 ae3e e3f2 a4be 11a8 d3bd 762a 90be
00000180: 68b2 673c 9416 953e 5e21 f63d 40cd 81be
00000190: a399 4abe 03ab 64bd 60b0 e7bc b30d 90bd
000001a0: a4ee 8bbe 64bf 063e db1d 833e a8e5 933e
000001b0: d2fd 34be 8610 063e 930f 11be 09a8 5b3e
000001c0: a57e 463e a8fe 00be 7ee8 a93e 5738 8dbd
000001d0: aa6e bcbe 7aa5 6c3e 20a4 24bd f13e a13e
000001e0: 84f4 8abe 3846 363e 9427 a03d 6969 1abe
000001f0: f1cc 75be 5b0a a0bd 3cca 40be d8c9 0f3d
00000200: c1de 2fbd dee8 823e 47c8 aabe aed7 1c3e
00000210: faaa 25be 92e7 5a3c d456 8a3e fb38 223e
00000220: 2166 833e eefa a03d a92a 77be b63e 8b3e
00000230: 7083 51be 0261 04be 4519 cf3e 979e d63d
00000240: 9d9e a73d 658e 973e cdc6 a7be c9b1 fd3d
00000250: 7921 8c3e 7282 4d3e bc35 e6bc f4e7 363e
00000260: cedd 0abd ec87 d1bd 5c47 ca3d 6abc 94be
00000270: fbf6 663e f675 a2bc 42b9 3e3e 3c6a 2dbe
00000280: 04a4 c1be ac78 b73e 5410 7e3d 92d2 393e
00000290: 6b4e 6f3d 2649 7b3d 91d4 b63e f54a 963e
000002a0: aab8 48be 5df7 c5be 1eec 5bbe 3343 963d
000002b0: 4208 5c3e fc0e 293d 6f93 1dbd 2f09 c43d
000002c0: 6a6e 9ebe cc5b 8d3d d03c 30be 2092 9ebe
000002d0: 3dba 6ebe 66d6 0bbe 1205 9fbe 4f00 813e
000002e0: 5487 9cbe 404c d1bc 76f6 793d db1a c4be
000002f0: c20a 0c3e d61b 0c3e c642 1d3e 3224 9dbe
00000300: 4d6b a4bc c3aa b03e 60f5 64be 2f3c e8bd
00000310: a6ce b03d 870e 0fbe 7f2a 8dbe cdee 903e
00000320: dd7a 97bc 9918 8e3e 22ef d5be 2371 0abe
00000330: ba8e 8a3e 524a 963e a175 a23e d819 68be
00000340: f6a2 583e dcea 49be d7b3 2cbe b289 8e3d
00000350: 235f a7be f724 903e 06fc af3e 8b57 633e
00000360: 94b3 4b3e 48e1 33be f357 4cbe 87a9 023e
00000370: 0e6b 383c 2c37 80bd 3721 09be bfc8 52be
00000380: 090b bf3d f82b a73d a0d1 47be 0e68 00be
00000390: 8a61 7d3e fcc2 e1be e018 e43d a4de a4be
000003a0: d846 e0bd 5a2e b13d c886 0abe 02c5 96be
000003b0: ca5d ad3e 2281 493e 9f07 693c 344b c43d
000003c0: 7aa4 9bbd d4c2 8bbe 1c06 cebe 1bef 9f3e
000003d0: 70a6 823c ca71 57be 4b3b 74be 269a ca3e
000003e0: b83c 9bbe dff8 ab3c 9d2b 74bd 0ea2 2c3e
000003f0: e0b3 f23d acab 9ebe 89e5 72bd 1d03 48be

conv1.nn.bias f4 [128]
-0.11029947 0.12280048 -0.13591562 0.43902865 0.2502035 0.41320345 0.3329279 -0.06983365
-0.19300725 -0.08523142 -0.17252624 0.067813 0.14221822 0.08881644 0.102389835 -0.073102735
0.22917384 0.3388303 0.06855126 0.095705755 0.11181024 -0.05733078 0.026433822 -0.14400831
-0.029913835 -0.0903166 0.16072586 0.024567533 0.34322554 -0.039370377 -0.19348566 0.20208102
0.39433765 0.3361294 -0.050082836 0.31204847 0.39434174 -0.31872934 0.09731165 -0.07266943
0.073475316 -0.2962252 0.23184063 0.41147602 -0.12314341 0.37910882 0.35094196 -0.020061934
0.08525542 -0.23711796 -0.16151755 0.39447743 -0.27580893 -0.037443493 0.111676596 -0.12790503
0.1110124 -0.30063576 -0.23186162 -0.0031052954 -0.08500461 0.015037361 0.40032938 -0.22729911
-0.04266029 0.02553038 0.24014108 -0.054041885 0.2200116 0.2573487 0.21140586 -0.30387077
0.056356873 0.17434332 0.17684563 0.11854132 -0.30043334 0.21201882 -0.017976692 -0.062346593
-0.07267533 0.26390508 0.21956417 0.1613083 0.38588387 0.109366514 -0.18937859 0.31438038
0.06683991 0.17782171 -0.059224773 -0.04114012 -0.05977754 0.20791763 0.090161 -0.009166811
-0.3551673 0.2686517 0.14169596 0.035436124 -0.24929987 0.30956987 -0.104001984 0.27296877
-0.020571984 -0.15899582 0.12678577 0.08918401 0.1823748 0.19969305 -0.16894746 -0.26949847
-0.0602814 -0.028029585 -0.08349055 0.08513579 0.1367003 0.029184455 0.32629675 0.049624432
0.009505399 0.160109 0.2510621 -0.20434974 0.19250304 0.21025103 0.100049645 0.40247697
00000000: b0e4 e1bd d17e fb3d 772d 0bbe 5dc8 e03e
00000010: ac1a 803e 678f d33e 8775 aa3e f204 8fbd
00000020: b1a3 45be d08d aebd b8aa 30be 8be1 8a3d
00000030: a7a1 113e 65e5 b53d c3b1 d13d e3b6 95bd
00000040: 8cac 6a3e 2a7b ad3e 9a64 8c3d 6101 c43d
00000050: c4fc e43d aed3 6abd be8b d83c ea76 13be
00000060: dc0d f5bc e9f7 b8bd 5295 243e da41 c93c
00000070: 42bb af3e d542 21bd 1b21 46be 54ee 4e3e
00000080: a0e6 c93e 2719 ac3e a923 4dbd d1c4 9f3e
00000090: 29e7 c93e 7e30 a3be 554b c73d b6d3 94bd
000000a0: 3a7a 963d d4aa 97be a167 6d3e fcac d23e
000000b0: 9d32 fcbd 8d1a c23e aaae b33e ed58 a4bc
000000c0: 659a ae3d 0dcf 72be db64 25be f2f8 c93e
000000d0: d436 8dbe 595e 19bd b3b6 e43d 89f9 02be
000000e0: 785a e33d eeec 99be 226d 6dbe 3682 4bbb
000000f0: e616 aebd 435f 763c f9f7 cc3e 19c1 68be
00000100: 8ebc 2ebd 1625 d13c 8be7 753e 065b 5dbd
00000110: b94a 613e 35c3 833e c77a 583e f394 9bbe
00000120: 77d6 663d 0e87 323e 0517 353e cbc5 f23d
00000130: 66d2 99be 761b 593e db43 93bc 245f 7fbd
00000140: ced6 94bd 911e 873e 6ed5 603e 012e 253e
00000150: 9292 c53e 8dfb df3d 76ec 41be 77f6 a03e
00000160: 5de3 883d e516 363e ad95 72bd 8b82 28bd
00000170: 4bd9 74bd 5ce8 543e 55a6 b83d 6430 16bc
00000180: 7dd8 b5be b78c 893e bf18 113e 7825 113d
00000190: 7748 7fbe f17f 9e3e fefe d4bd 90c2 8b3e
000001a0: 9486 a8bc cdcf 22be 21d4 013e 1ba6 b63d
000001b0: 76c0 3a3e 567c 4c3e 9000 2dbe b4fb 89be
000001c0: a1e9 76bd 4d9e e5bc 18fd aabd ac5b ae3d
000001d0: 2afb 0b3e 3d14 ef3c 5e10 a73e fd42 4b3d
000001e0: 88bc 1b3c 9df3 233e 368b 803e 0f41 51be
000001f0: 841f 453e 0c4c 573e d4e6 cc3d 7611 ce3e

conv2.att_src f4 [1, 2, 128]
0.17713788 -0.19250657 0.016397497 -0.10503587 0.18068348 0.1074665 0.26167712 -0.088760085
-0.25442928 0.12916216 -0.08890112 0.17951487 -0.062970184 -0.1733349 0.11074666 -0.0979282
-0.09961939 -0.15797596 -0.12582888 -0.20762208 0.20771764 0.04467048 -0.21858208 0.18426795
-0.089544065 -0.07493165 -0.14883792 -0.17865394 -0.20771267 -0.08059674 0.16500096 0.16904487
-0.02974428 0.15507579 -0.046465505 -0.10799779 -0.17897902 -0.19039059 0.16280557 -0.2669997
-0.22808069 -0.19695073 -0.15935186 0.21563257 0.002373187 0.22941265 0.04874134 0.06261957
-0.016791454 0.037342265 0.11251302 0.022792265 -0.21604377 0.11554218 0.13461192 -0.10084095
0.027266558 0.026314674 -0.050759602 0.18837516 0.17841561 -0.049479026 0.13438351 -0.11591487
-0.17050847 -0.08958216 -0.21161169 -0.20552136 0.21958007 -0.22112139 -0.09252269 0.046069916
-0.12782468 0.19934112 0.16211072 0.08243049 -0.07918357 -0.22705735 0.012805401 0.21578085
0.16371799 0.04659254 -0.115576334 -0.066990875 -0.11425954 0.29573858 0.1780849 -0.113001004
-0.14087182 -0.17156407 -0.10393781 0.16615933 -0.13415194 0.079245 0.062566735 -0.08400091
0.051792733 0.14598799 -0.02359964 -0.032451887 -0.20722415 0.22112024 -0.16051848 0.20075198
-0.03637163 -0.10042352 0.07062747 0.16518454 0.20941453 -0.04592733 0.14630578 -0.17086266
-0.038587462 0.02803372 0.009441861 0.1341424 0.013966035 -0.20238657 0.21394001 0.18854378
0.14759591 -0.1907973 -0.059857417 -0.17277624 0.20131168 -0.10270099 0.0904948 -0.23124729
-0.14482184 -0.0061546015 0.03733089 -0.13657433 0.19339308 0.19679937 0.16770099 0.074441954
-0.1294008 -0.20781545 0.14647332 0.015312829 0.08626162 0.17239289 -0.22000475 -0.12033224
-0.26529366 0.18312715 0.035248917 0.1585451 -0.16976358 0.03714532 0.06282719 0.19172299
0.17550462 -0.0727635 0.26917738 0.20486605 -0.21582401 -0.1537449 0.030608121 -0.1818639
0.04195431 0.11460181 -0.09020029 -0.06743815 -0.021294393 -0.4466457 -0.14151458 0.32584643
-0.14601962 0.06486039 0.21303158 -0.3046334 -0.117166646 -0.30858424 -0.17442863 0.13068992
-0.06144826 0.13362688 0.17714393 0.0506841 -0.19943468 0.2085823 -0.13480869 -0.41624013
-0.019190917 -0.24886629 -0.17777464 -0.24629872 -0.1221452 -0.060501616 -0.17352334 -0.25474215
-0.18734019 -0.13325058 -0.09663065 0.18519 0.13959067 -0.018778581 0.17937757 0.17711152
-0.06445831 0.2703434 0.20629582 0.07974936 0.19529626 -0.08989949 0.040232874 -0.040569566
-0.20119354 0.1222087 0.16359785 -0.096158236 -0.09466267 0.018028414 0.06178015 0.100427985
-0.20767868 -0.11279902 -0.101764604 -0.06061241 -0.032406174 -0.25386134 0.15405923 -0.09598684
-0.18672433 -0.15959428 -0.1063151 -0.04426677 0.20496202 0.20129311 0.27649808 0.10413113
-0.264303 0.027082687 -0.18587747 0.075391404 0.17057186 -0.075647086 -0.21396768 0.18416744
-0.10168154 -0.20559242 0.16892959 -0.21148969 -0.23289749 0.10727332 0.15150245 -0.072499074
0.06358302 -0.16690539 -0.060711134 0.12138449 -0.2296277 -0.003954983 -0.0034738567 -0.2515398
00000000: a263 353e 7120 45be 0b54 863c 0c1d d7bd
00000010: 1705 393e 6517 dc3d 8bfa 853e d9c7 b5bd
00000020: 8e44 82be 1643 043e ca11 b6bd bfd2 373e
00000030: 83f6 80bd b47e 31be 25cf e23d 958e c8bd
00000040: 4005 ccbd 73c4 21be 49d9 00be e29a 54be
00000050: efb3 543e 65f8 363d fbd3 5fbe bdb0 3c3e
00000060: e162 b7bd c475 99bd f868 18be 0ff1 36be
00000070: a1b2 54be e70f a5bd 03f6 283e 191a 2d3e
00000080: 47aa f3bc 30cc 1e3e 9d52 3ebd f22d ddbd
00000090: 4746 37be c0f5 42be 81b6 263e 2fb4 88be
000000a0: fc8d 69be 74ad 49be 222d 23be c9ce 5c3e
000000b0: 7987 1b3b 26eb 6a3e 00a5 473d b03e 803d
000000c0: 3b8e 89bc 34f4 183d 3a6d e63d d8b6 ba3c
000000d0: 943a 5dbe 61a1 ec3d b5d7 093e b385 cebd
000000e0: 1e5e df3c df91 d73c 4de9 4fbd 6be5 403e
000000f0: 95b2 363e 85aa 4abd d59b 093e c664 edbd
00000100: c699 2ebe da76 b7bd bcb0 58be 3174 52be
00000110: 99d9 603e a56d 62be 897c bdbd cfb3 3c3d
00000120: 79e4 02be 1420 4c3e 5a00 263e 51d1 a83d
00000130: ff2a a2bd b981 68be bfcd 513c a8f5 5c3e
00000140: b0a5 273e d2d7 3e3d 49b3 ecbd 8332 89bd
00000150: e800 eabd 0c6b 973e e35b 363e 126d e7bd
00000160: b440 10be 7eae 2fbe 59dd d4bd ac25 2a3e
00000170: 205f 09be 344b a23d fd22 803d ab08 acbd
00000180: 9e24 543d e07d 153e 0854 c1bc 45ec 04bd
00000190: 9132 54be 586d 623e f55e 24be ed91 4d3e
000001a0: 6bfa 14bd d9aa cdbd 23a5 903d 2326 293e
000001b0: c370 563e 4c1e 3cbd 2fd1 153e 9ff6 2ebe
000001c0: e30d 1ebd f9a6 e53c 09b2 1a3c a05c 093e
000001d0: ccd1 643c 6d3e 4fbe 1713 5b3e 9f11 413e
000001e0: 6223 173e 5e60 43be 0d2d 75bd 41ec 30be
000001f0: a624 4e3e e654 d2bd 5655 b93d 17cc 6cbe
00000200: 2d4c 14be 8aac c9bb 46e8 183d 24da 0bbe
00000210: d608 463e c685 493e cfb9 2b3e 0675 983d
00000220: a581 04be 93cd 54be 1afd 153e a9e2 7a3c
00000230: efa9 b03d c387 303e ed48 61be c070 f6bd
00000240: 92d4 87be af85 3b3e 2b61 103d a659 223e
00000250: 81d6 2dbe b125 183d 8bab 803d 0853 443e
00000260: 7cb7 333e 0805 95bd 9ed1 893e 68c8 513e
00000270: f800 5dbe 4e6f 1dbe e2bd fa3c 883a 3abe
00000280: 48d8 2b3d 5bb4 ea3d eeba b8bd 031d 8abd
00000290: 9471 aebc bfae e4be 33e9 10be 58d5 a63e
000002a0: 2b86 15be 86d5 843d f324 5a3e e9f8 9bbe
000002b0: 11f5 efbd c1fe 9dbe 6b9d 32be 94d3 053e
000002c0: 2cb1 7bbd 7cd5 083e 3865 353e 219a 4f3d
000002d0: 9b38 4cbe 9996 553e 4a0b 0abe 6d1d d5be
000002e0: 4536 9dbc ced6 7ebe 8e0a 36be bb35 7cbe
000002f0: 4327 fabd 8bd0 77bd 1ab0 31be 906d 82be
00000300: 1bd6 3fbe d772 08be 4ae6 c5bd 73a2 3d3e
00000310: dbf0 0e3e 8ad5 99bc c1ae 373e b95c 353e
00000320: b802 84bd 736a 8a3e 363f 533e a253 a33d
00000330: befb 473e 391d b8bd 3acb 243d 462c 26bd
00000340: ae05 4ebe 8e48 fa3d 3286 273e 9cee c4bd
00000350: 80de c1bd 53b0 933c 2f0d 7d3d 30ad cd3d
00000360: b8a9 54be 2c03 e7bd f669 d0bd b844 78bd
00000370: 56bc 04bd 1dfa 81be b4c1 1d3e c094 c4bd
00000380: aa34 3fbe af6c 23be bbbb d9bd 1351 35bd
00000390: 90e1 513e c81f 4e3e 2891 8d3e b442 d53d
000003a0: b952 87be 83dc dd3c aa56 3ebe cf66 9a3d
000003b0: 64aa 2e3e dcec 9abd 581a 5bbe 6496 3c3e
000003c0: 693e d0bd d286 52be e1fb 2c3e c190 58be
000003d0: ae7c 6ebe 1db2 db3d 7523 1b3e 657a 94bd
000003e0: d037 823d 3fe9 2abe 3dac 78bd 6e98 f83d
000003f0: 8623 6bbe cd98 81bb a5a9 63bb d3c9 80be

conv2.att_dst f4 [1, 2, 128]
0.0038730414 0.2198122 -0.112824656 -0.15338577 0.056538656 -0.08534947 -0.0805204 -0.19030553
0.09509955 -0.07641032 -0.079903886 0.19572778 -0.13966231 0.25012705 -0.11993982 -0.028510785
0.08934781 0.04509737 0.005855373 0.23506553 0.12588845 0.07930212 0.21734808 0.036586426
0.016305268 0.23074293 -0.104745924 -0.06702821 -0.10980421 0.15441583 -0.010205208 -0.10825353
0.030285425 -0.03794589 -0.2115025 -0.11146721 0.06575079 0.06614021 -0.06913031 0.19982032
0.2464331 0.06525021 -0.058047418 0.20331179 -0.14103305 0.14208277 0.04382793 -0.032505266
0.2417314 0.15676418 0.109482266 0.19760507 0.17507575 -0.07409849 -0.019091541 -0.18497933
-0.027857738 -0.0401685 0.0021261028 -0.06514442 -0.007590847 0.06564098 0.14887804 0.15844394
0.106197126 -0.07440759 -0.21167554 0.038558997 0.061991405 -0.21039203 -0.09765651 0.2180375
0.0071045454 0.053442076 -0.07989195 0.013227287 0.046195112 -0.081341684 0.08097046 0.10503576
0.15843067 0.12831087 -0.020633277 0.10419503 0.0266431 0.003908269 0.2428256 -0.08092521
0.11564525 0.038103268 0.07263134 0.14212465 -0.062624276 -0.16980386 0.19350271 0.013019723
-0.032478787 0.09767103 -0.09830329 0.15875322 -0.14265695 0.062193993 1.124479e-05 0.19423577
0.1947741 0.09170587 -0.11837107 0.15939459 0.16984807 0.06043276 -0.06395987 0.19016173
0.20502247 -0.16757852 -0.05659255 0.19699578 -0.098929934 0.13411465 0.078081705 -0.08230161
-0.08069866 0.16640255 0.12553492 -0.17411932 -0.22360429 0.057495505 0.17773123 -0.025504138
0.0046104644 -0.21502632 0.011467927 -0.09952039 0.023314357 -0.15539993 0.19113334 -0.10836683
-0.025849905 0.11081369 -0.1110269 0.24005967 0.00952828 0.12673457 -0.13369687 -0.049580798
0.19846088 -0.023876932 0.22621378 -0.21531549 -0.116486505 -0.005403641 -0.107056506 0.01688194
0.052313544 -0.22842057 0.018480007 -0.03867565 -0.0494676 0.17445892 0.17023149 -0.11163097
0.0120660765 0.18368542 -0.19158956 -0.13475761 0.122715026 -0.15511744 -0.06057081 0.0038169643
0.22293751 0.08214447 -0.13695224 -0.049403496 -0.01677643 -0.04076173 -0.18144886 -0.01646595
0.13900554 -0.024846137 0.16453712 0.124994196 -0.12657568 -0.045412183 0.19192226 -0.17127718
0.08548852 -0.09484907 -0.15142615 0.16809376 -0.020494808 -0.024255011 0.14701474 -0.04398195
0.028310597 -0.1514268 0.13636331 -0.226048 0.1646523 0.0137168905 0.004470181 0.012513093
0.020151569 0.031034077 -0.0027670765 -0.12049787 0.14737284 0.00864932 0.08342035 0.22697124
-0.1853901 -0.033087682 0.12541202 0.13692135 0.0072725285 -0.056942273 0.20359546 0.093261614
-0.14175738 0.027191957 -0.2528353 0.044726938 -0.087003514 0.04934084 -0.11088896 -0.13845798
-0.22181372 -0.15544082 0.033914115 -0.038788497 -0.073823474 0.052438833 0.17988296 0.17795067
-0.09755422 0.028296534 -0.16104841 -0.19723563 0.02131003 -0.106203094 0.02368682 0.088429324
-0.06250025 -0.015632765 0.0013172426 -0.0045744875 -0.013352079 0.000420915 -0.16219074 -0.07989744
0.10989408 0.13381545 0.17890929 0.17821941 0.034052487 -0.053459592 0.20097528 -0.033653934
00000000: dad2 7d3b 7316 613e 9d10 e7bd 2911 1dbe
00000010: 1495 673d b4cb aebd e1e7 a4bd 74df 42be
00000020: 8ec3 c23d 047d 9cbd a6a4 a3bd dd6c 483e
00000030: a303 0fbe a710 803e 02a3 f5bd 738f e9bc
00000040: fcfb b63d 05b8 383d 6ede bf3b 05b5 703e
00000050: e7e8 003e 2669 a23d 7f90 5e3e a6db 153d
00000060: a092 853c e047 6c3e 0885 d6bd 1646 89bd
00000070: 08e1 e0bd 2f1f 1e3e bf33 27bc 07b4 ddbd
00000080: 2419 f83c 266d 1bbd 1d94 58be ec48 e4bd
00000090: 5aa8 863d 8574 873d 3194 8dbd b39d 4c3e
000000a0: f558 7c3e e7a1 853d 21c3 6dbd f730 503e
000000b0: f86a 10be 257e 113e ea84 333d 3e24 05bd
000000c0: 7088 773e ca86 203e 3d38 e03d fc58 4a3e
000000d0: 0f47 333e f3c0 97bd dd65 9cbc 396b 3dbe
000000e0: e935 e4bc ba87 24bd 1656 0b3b 706a 85bd
000000f0: a4bc f8bb c76e 863d 7c73 183e 213f 223e
00000100: e17d d93d 0263 98bd 79c1 58be 0af0 1d3d
00000110: b3ea 7d3d 0271 57be 2300 c8bd 3945 5f3e
00000120: 3fcd e83b 14e6 5a3d 649e a3bd 43b7 583c
00000130: 1637 3d3d 7896 a6bd d7d3 a53d fd1c d73d
00000140: a63b 223e ed63 033e 1e07 a9bc 3464 d53d
00000150: a142 da3c f010 803b 46a7 783e 1ebc a5bd
00000160: 6bd7 ec3d 2c12 1c3d bdbf 943d 2089 113e
00000170: 2841 80bd 10e1 2dbe 9325 463e ad50 553c
00000180: 7a08 05bd c007 c83d 3c53 c9bd 3490 223e
00000190: aa14 12be 21bf 7e3d 01a8 3c37 bee5 463e
000001a0: dd72 473e 4ad0 bb3d 886c f2bd 5638 233e
000001b0: a7ec 2d3e 5788 773d 64fd 82bd c2b9 423e
000001c0: 69f1 513e b499 2bbe 97cd 67bd 43b9 493e
000001d0: c79b cabd 5a55 093e 4de9 9f3d bf8d a8bd
000001e0: 5745 a5bd 6e65 2a3e 3a8c 003e 564c 32be
000001f0: 86f8 64be 6880 6b3d 2dff 353e 0eee d0bc
00000200: 6113 973b dc2f 5cbe f9e3 3b3c 59d1 cbbd
00000210: c0fd be3c 2921 1fbe 75b8 433e 6eef ddbd
00000220: 2ec3 d3bc 4af2 e23d 1262 e3bd 34d2 753e
00000230: 811c 1c3c b5c6 013e d5e7 08be 3c15 4bbd
00000240: 5439 4b3e 8e99 c3bc 96a4 673e aa7b 5cbe
00000250: 7a90 eebd 0711 b1bb 7140 dbbd ff4b 8a3c
00000260: ba46 563d 15e7 69be 6263 973c 5c6a 1ebd
00000270: 8a9e 4abd 5ca5 323e 2a51 2e3e c79e e4bd
00000280: cbb0 453c 0818 3c3e 0e30 44be e6fd 09be
00000290: 0452 fb3d 1bd7 1ebe 1919 78bd 0926 7a3b
000002a0: bb49 643e 5c3b a83d 353d 0cbe 525b 4abd
000002b0: b96e 89bc c6f5 26bd bbcd 39be 9ae3 86bc
000002c0: 7857 0e3e 208a cbbc 6b7c 283e f5fc ff3d
000002d0: 0e9d 01be 2002 3abd 4587 443e 4963 2fbe
000002e0: 9b14 af3d 3b40 c2bd 750f 1bbe c520 2c3e
000002f0: bae4 a7bc 72b2 c6bc 088b 163e 6b26 34bd
00000300: a0eb e73c a10f 1bbe d3a2 0b3e 2079 67be
00000310: 9d9a 283e cfbc 603c 997a 923b b703 4d3c
00000320: e714 a53c 2d3b fe3c d757 35bb 96c7 f6bd
00000330: e8e8 163e e1b5 0d3c 4ad8 aa3d 266b 683e
00000340: e7d6 3dbe f386 07bd 026c 003e 1c35 0c3e
00000350: 644e ee3b 4d3c 69bd 547b 503e f2ff be3d
00000360: d928 11be abc1 de3c a173 81be 9833 373d
00000370: e62e b2bd 9f19 4a3d c019 e3bd eec7 0dbe
00000380: 2323 63be e12b 1fbe 87e9 0a3d b0e0 1ebd
00000390: c330 97bd 1aca 563d 3d33 383e b338 363e
000003a0: 82ca c7bd 22ce e73c e0e9 24be 23f8 49be
000003b0: 5f92 ae3c 0281 d9bd dd0a c23c 6f1a b53d
000003c0: 2200 80bd 4910 80bc 54a7 ac3a 95e5 95bb
000003d0: aec2 5abc 41ae dc39 5415 26be 45a1 a3bd
000003e0: 2610 e13d eb06 093e ff33 373e 267f 363e
000003f0: 9f7a 0b3d 72f8 5abd 77cc 4d3e b5d8 09bd

conv2.bias f4 [128]
-0.038901165 -0.031415194 0.031216757 -0.021479137 -0.031091973 -0.01035308 0.02709772 -0.0102949375
0.333151 -0.026468448 -0.00307023 -0.016710667 0.041224115 0.025005134 -0.0390846 -0.004344975
0.010007594 0.07092352 0.0562568 0.14164072 -0.027949035 0.017200986 -0.016730264 -0.014063007
0.20069593 0.124037206 0.15841112 0.08681163 -0.005925513 0.06645767 -0.06865805 -0.028531915
0.043888673 0.008588541 0.002661078 -0.0003361436 -0.007801704 0.011850449 0.018271225 0.14770862
-0.006960327 0.037517413 0.024697805 -0.0035956856 -0.025064703 -0.028461492 -0.004300382 -0.00046156856
0.09428888 -0.013150422 -0.065670766 -0.009304243 0.0035699492 -0.02985433 0.041337702 0.10505312
-0.010120259 -0.0079336185 0.08206652 -0.012692721 0.02976191 -0.0038012082 0.047283754 -0.01467993
-0.0050783064 0.042519066 0.011104032 0.15460992 0.023015827 0.044129506 0.11131752 -0.013559039
0.13854648 0.016013807 -0.0032271347 -0.022915063 -0.009404347 0.010663591 -0.0076894853 -0.014481034
-0.024650583 -0.019124702 -0.008794256 -0.0051452178 0.03148146 0.015357869 -0.018281171 -0.030324342
0.123153515 0.03913328 0.008249935 0.026620125 0.011207785 0.09253684 -0.0030757848 0.012283411
-0.097166196 -0.048018407 0.06115212 -0.02117605 0.08435007 0.003245043 0.07099675 -0.0043705637
-0.0037618976 -0.03300131 -0.01562273 0.0059217247 -0.018744832 0.044628263 -0.008188147 0.016304335
-0.00827427 -0.01602329 0.020039715 -0.007878015 -0.015175193 -0.011150519 -0.004344641 -0.019645864
0.0252848 0.059086524 -0.011993427 0.04853178 0.026895048 -0.020862365 0.043612495 0.06458397
00000000: d456 1fbd 38ad 00bd 49ba ff3c 04f5 afbc
00000010: 98b4 febc f79f 29bc 0afc dd3c 19ac 28bc
00000020: c592 aa3e 5cd4 d8bc e935 49bb cfe4 88bc
00000030: 9eda 283d 91d7 cc3c 2c17 20bd 4b60 8ebb
00000040: e4f6 233c 5a40 913d 886d 663d 440a 113e
00000050: 60f5 e4bc 15e9 8c3c e80d 89bc 8768 66bc
00000060: 3c83 4d3e 3807 fe3d 8636 223e 4cca b13d
00000070: ce2a c2bb f51a 883d 979c 8cbd c3bb e9bc
00000080: 9cc4 333d f4b6 0c3c 7b65 2e3b 6e3c b0b9
00000090: 70a5 ffbb 6328 423c 89ad 953c ee40 173e
000000a0: 7413 e4bb dcab 193d 0d53 ca3c 98a5 6bbb
000000b0: 7e54 cdbc 1328 e9bc 38ea 8cbb affe f1b9
000000c0: 871a c13d de74 57bc 657e 86bd d370 18bc
000000d0: cff5 693b 1191 f4bc b951 293d 1726 d73d
000000e0: 71cf 25bc 02fc 01bc 7e12 a83d 21f5 4fbc
000000f0: 40cf f33c b11d 79bb 9cac 413d 1784 70bc
00000100: ec67 a6bb 7928 2e3d b0ed 353c 1052 1e3e
00000110: b08b bc3c 24c1 343d 71fa e33d bb26 5ebc
00000120: 21df 0d3e 632f 833c 567e 53bb 5fb8 bbbc
00000130: b114 1abc 58b6 2e3c 14f8 fbbb dc41 6dbc
00000140: 05f0 c9bc 68ab 9cbc c815 10bc 3799 a8bb
00000150: b4f2 003d 929f 7b3c 65c2 95bc c16a f8bc
00000160: e937 fc3d 384a 203d bc2a 073c 7312 da3c
00000170: dca0 373c f483 bd3d 1b93 49bb 5c40 493c
00000180: 12ff c6bd f3ae 44bd a57a 7a3d 6579 adbc
00000190: bbbf ac3d caaa 543b be66 913d f236 8fbb
000001a0: 2b8a 76bb 622c 07bd 7bf6 7fbc 070b c23b
000001b0: c38e 99bc 20cc 363d 9427 06bc ab90 853c
000001c0: ce90 07bc 4643 83bc 542a a43c ca12 01bc
000001d0: 5fa1 78bc abb0 36bc 7e5d 8ebb 5df0 a0bc
000001e0: 1222 cf3c b604 723d 1480 44bc 42c9 463d
000001f0: 0153 dc3c 8de7 aabc 04a3 323d 9a44 843d

conv2.lin.weight f4 [256, 128]
0.03787353 -0.053219058 -0.0121370545 0.4983278 -0.051767148 0.1816267 -0.0820962 -0.19902545
-0.057165183 -0.08308091 -0.03322821 0.01826195 0.004434282 -0.11710153 -0.106508404 0.15739128
-0.08482181 0.3037153 -0.08356009 0.11217632 0.37283292 0.15980105 0.09086237 0.12412756
-0.13998352 -0.008685705 -0.07186301 -0.1252574 0.03214628 0.041917074 0.024807699 -0.026273215
0.47608972 0.052421432 -0.024623815 0.010018365 0.05815894 -0.0074058874 -0.013179695 0.10926474
0.104126126 0.07612566 -0.0076520806 0.2822488 0.1862974 0.15172647 0.24552143 -0.022618262
-0.12679291 -0.006549539 0.042267915 -0.10546263 0.14384446 -0.14315711 -0.008568571 -0.10909414
0.07674151 0.043366358 0.108351246 0.27630547 0.007173686 0.01873275 0.45265022 0.044274244
0.05179038 -0.04997417 -0.11617554 -0.1282444 0.441034 -0.04668719 -0.14178799 -0.012432671
0.028738324 -0.11260857 0.15578447 0.567317 -0.0416781 -0.01538949 0.44559228 -0.040697157
-0.18074785 -0.026689505 0.12159495 0.32326412 0.41022328 -0.09465246 0.40376326 -0.06578484
-0.030590925 0.048367083 0.17469674 0.2359031 0.034877744 -0.07666503 -0.103687435 -0.03370058
-0.08399999 0.33932373 -0.09267391 0.034166835 0.09078161 0.14473099 0.060973495 -0.20643473
0.010566687 0.06545059 0.11542233 0.0768047 -0.11499049 0.25021058 0.14750145 -0.06548658
0.3687327 0.031917937 -0.040996667 0.008119735 -0.035286546 -0.11897948 0.43830326 -0.09290492
0.23349394 0.14568153 -0.16070485 -0.05187543 0.29014942 -0.0375928 0.19377305 0.23317398
0.12646416 -0.0799084 0.07401085 0.027211867 0.06088809 0.00096268154 0.06925985 -0.045429464
0.037910294 -0.22337204 0.13869521 -0.08019162 -0.06278957 0.16018207 -0.09399414 -0.34822094
-0.18598056 -0.22666939 -0.013949994 -0.07162932 -0.13142315 0.3061557 -0.043854788 0.08405458
0.082971044 -0.05074745 0.16126907 -0.048643023 -0.09373613 0.14683233 0.0366204 -0.17337388
-0.105216146 -0.07065968 0.0027814454 0.097274885 0.030609759 0.018633235 0.10264793 -0.14154819
-0.07745313 -0.07075032 0.009743797 0.0073026796 -0.0434246 -0.24089098 -0.36448318 -0.0039931512
0.018074507 -0.20820124 0.3467802 0.14439969 -0.16908993 0.003164991 0.078656785 0.12499384
-0.17258659 0.11497444 0.10728605 -0.15628465 0.18308589 0.012068026 -0.45686424 2.6676995e-05
0.10216301 0.08505858 -0.1210662 0.14083707 -0.10446114 -0.07911368 0.13397254 0.12705112
0.22867824 -0.16890205 0.047442503 -0.23459254 0.13324025 -0.10757676 -0.2769039 -0.077463344
-0.045209475 0.061301105 0.046657126 -0.19071542 -0.046781912 0.048067275 -0.19087234 0.13079351
0.0018804083 0.14332382 0.11071741 0.14121698 -0.086982206 0.14068224 0.035141837 0.0895232
0.04779589 0.08496562 -0.06791286 -0.008441527 0.08115481 -0.11918868 0.004436555 -0.08799739
0.044664998 -0.114668205 -0.09554433 -0.0134242065 -0.07881163 -0.059506953 -0.09773834 0.015142427
-0.11623673 0.1232962 -0.055542022 0.15171883 -0.073013216 0.0423579 -0.20675178 -0.074815005
-0.26620468 0.44082952 -0.1577153 0.027884468 -0.043748032 0.08272249 0.14330569 -0.09080919
00000000: 4621 1b3d 3afc 59bd 7fda 46bc d224 ff3e
00000010: ca09 54bd 5afc 393e 0d22 a8bd 54cd 4bbe
00000020: 0a26 6abd 5326 aabd 4e1a 08bd 169a 953c
00000030: 744d 913b edd2 efbd 1421 dabd 2e2b 213e
00000040: 0fb7 adbd 9280 9b3e 8d21 abbd b3bc e53d
00000050: f5e3 be3e e3a2 233e 0d16 ba3d 9736 fe3d
00000060: d757 0fbe 7d4e 0ebc ea2c 93bd 7a43 00be
00000070: d1ab 033d 3db1 2b3d 8439 cb3c ed3a d7bc
00000080: 08c2 f33e dbb7 563d e2b7 c9bc 1224 243c
00000090: 1238 6e3d 16ad f2bb a6ef 57bc 31c6 df3d
000000a0: 1440 d53d c5e7 9b3d 4ebe fabb ea82 903e
000000b0: bfc4 3e3e 2f5e 1b3e f869 7b3e ef49 b9bc
000000c0: 00d6 01be 849d d6bb 1f21 2d3d cbfc d7bd
000000d0: f64b 133e c797 12be 3163 0cbc c06c dfbd
000000e0: a72a 9d3d eca0 313d 42e7 dd3d e977 8d3e
000000f0: 3d11 eb3b 6d75 993c c5c1 e73e e958 353d
00000100: 2622 543d b7b1 4cbd 71ed edbd 8052 03be
00000110: 35cf e13e 113b 3fbd df30 11be 67b2 4bbc
00000120: a26c eb3c 529f e6bd f785 1f3e b03b 113f
00000130: a8b6 2abd 3324 7cbc ac24 e43e 10b2 26bd
00000140: f715 39be f3a3 dabc c606 f93d e082 a53e
00000150: c908 d23e 26d9 c1bd 0fba ce3e 34ba 86bd
00000160: d299 fabc 901c 463d b4e3 323e 9590 713e
00000170: f7db 0e3d 8e02 9dbd 145a d4bd 9f09 0abd
00000180: 3008 acbd d7bb ad3e d2cb bdbd 86f2 0b3d
00000190: b5eb b93d 5c34 143e 58bf 793d a063 53be
000001a0: e61f 2d3c f50a 863d 8b62 ec3d c84b 9d3d
000001b0: 2280 ebbd 9a1b 803e 9f0a 173e d41d 86bd
000001c0: 88ca bc3e 62bc 023d 1fec 27bd a308 053c
000001d0: a088 10bd 83ab f3bd 4969 e03e ef44 bebd
000001e0: 0919 6f3e 8a2d 153e d08f 24be 557b 54bd
000001f0: 778e 943e e8fa 19bd 716c 463e 29c5 6e3e
00000200: d27f 013e 04a7 a3bd 0093 973d 6ceb de3c
00000210: ca65 793d 775c 7c3a 1cd8 8d3d 3f14 3abd
00000220: d347 1b3d a4bb 64be 1e06 0e3e 813b a4bd
00000230: d197 80bd c506 243e 0080 c0bd 044a b2be
00000240: b071 3ebe 051c 68be 848e 64bc 65b2 92bd
00000250: ca93 06be 71c0 9c3e 14a1 33bd cf24 ac3d
00000260: b9ec a93d 8fdc 4fbd b823 253e e83d 47bd
00000270: baf8 bfbd 375b 163e 46ff 153d ec88 31be
00000280: 907b d7bd 06b6 90bd e948 363b 0e38 c73d
00000290: 51c1 fa3c baa4 983c 1439 d23d 02f2 10be
000002a0: bf9f 9ebd 8be5 90bd 72a4 1f3c 514b ef3b
000002b0: fedd 31bd 20ac 76be 8a9d babe fbd8 82bb
000002c0: fd10 943c b532 55be 2d8d b13e 83dd 133e
000002d0: e925 2dbe bd6b 4f3b cf16 a13d c5fc ff3d
000002e0: 8aba 30be b877 eb3d cab8 db3d 1509 20be
000002f0: de7a 3b3e f8b8 453c 1cea e9be 69c8 df37
00000300: d73a d13d 3133 ae3d 8ef1 f7bd 9837 103e
00000310: b9ef d5bd 5a06 a2bd 1930 093e b019 023e
00000320: a12a 6a3e a9f4 2cbe 1253 423d 0739 70be
00000330: 2270 083e 3451 dcbd 59c6 8dbe 1aa5 9ebd
00000340: 922d 39bd de16 7b3d 8b1b 3f3d e74a 43be
00000350: 649e 3fbd 31e2 443d 0a74 43be bcee 053e
00000360: 0878 f63a 7bc3 123e cfbf e23d 2f9b 103e
00000370: ba23 b2bd 010f 103e e3f0 0f3d f157 b73d
00000380: a0c5 433d 7402 ae3d e615 8bbd 554e 0abc
00000390: 7e34 a63d 3219 f4bd 8560 913b fa37 b4bd
000003a0: a5f2 363d 2ad7 eabd bfac c3bd 34f1 5bbc
000003b0: fe67 a1bd 90bd 73bd 0a2b c8bd f117 783c
000003c0: 860d eebd b882 fc3d 0880 63bd 2e5c 1b3e
000003d0: f487 95bd 7a7f 2d3d bdb6 53be 9c38 99bd
000003e0: fb4b 88be 68b4 e13e 1f80 21be f86d e43c
000003f0: 2331 33bd 696a a93d babe 123e 2bfa b9bd

conv3.lin_rel.weight f4 [128, 128]
-0.026759995 0.04526459 0.020427216 0.015296516 -0.16760378 0.05466827 0.0056519764 0.09326186
0.12551592 -0.15084085 -0.07978482 0.028323283 0.011107127 0.008558696 -0.042950522 0.103997216
-0.15321311 0.054744318 -0.0724758 -0.1769596 -0.061076403 -0.11248929 -0.060047645 0.033786375
0.02456596 -0.23585078 0.053393744 0.13491213 -0.01768273 0.1356368 0.09019364 0.036185253
-0.0537868 -0.011131171 -0.067823574 -0.047343154 -0.0091086775 0.0627954 0.012320278 -0.0019764542
-0.08407087 0.06256806 -0.045541883 0.03070968 -0.04190427 0.07883822 -0.11362528 0.069336966
0.051863275 -0.08759908 -0.07697194 -0.069619216 -0.09088663 0.086468235 0.0073407656 0.061023604
-0.07468074 -0.06709485 0.115162306 0.039275 0.07314279 0.044300996 0.03702804 -0.042360056
0.17335308 0.034694225 -0.15553525 -0.17393528 -0.055139903 -0.053234115 -0.2677886 0.04053082
0.036518574 0.06960127 0.09500496 -0.055782113 0.011245776 -0.026579255 -0.051770054 0.08619904
0.073859654 -0.10917736 -0.069228835 -0.0019057416 0.046245363 0.077939376 0.05431996 -0.03773017
0.07661659 0.0936295 -0.014807757 0.04621712 0.070643045 0.123968 -0.0029768639 0.05219185
0.030163513 0.08064131 0.061112735 0.023880113 0.08089938 0.0985331 -0.21909054 -0.07887884
-0.08281067 -0.068413995 0.09738101 -0.049080055 0.043618053 -0.24525608 -0.010187551 -0.046502206
-0.09091239 0.11159305 0.09750355 -0.07129209 0.05716961 -0.12177224 0.13090387 -0.041227613
-0.02598925 -0.25697923 0.07622655 -0.09750511 -0.004192099 -0.12182998 -0.061630156 -0.041956663
0.09032831 0.05447999 -0.086351134 0.098217085 0.010217604 -0.02729592 -0.09943799 0.03852895
0.064139225 -0.04129159 0.07947353 0.0032919347 -0.0042697536 -0.05324787 -0.06403968 -0.0578065
-0.11242093 0.02119 0.014532935 0.11011568 0.033247814 0.05852313 -0.00076676166 -0.04321002
0.08027006 -0.04004554 0.038632073 0.08510908 0.027006282 -0.0048842984 -0.12473865 -0.014790169
-0.02850981 -0.072614476 -0.027755367 0.08798525 0.094360776 -0.06017478 -0.030651046 0.09812048
0.07289297 -0.08931256 0.002643256 -0.006602615 0.09942955 0.072817266 0.082581446 0.08314484
0.045306437 -0.024423622 -0.023047512 -0.026825469 0.08767273 0.03487711 -0.08609106 -0.05668581
0.08236995 0.099785864 0.065619975 0.10558089 -0.0852422 0.0552303 -0.050904855 0.09018241
0.041211426 -0.05404811 -0.20772046 -0.09431393 0.009993642 0.010703742 0.09292605 0.0036698591
-0.098525025 -0.06196038 0.017621059 -0.03690224 0.02502911 0.092457406 0.056344926 -0.12118582
-0.03040113 0.026678959 0.05460896 0.12276739 -0.039447613 0.044928867 0.041451406 0.059055794
-0.0043392843 -0.072072744 0.06864012 -0.060262308 0.11518435 0.023137033 0.006260964 0.008745831
-0.026349986 0.02684206 -0.1015112 -0.0027506403 -0.03044433 0.047454514 0.091345295 0.086880215
0.00821523 -0.05734108 -0.026128443 0.043464635 0.09116373 -0.3177481 0.099210344 -0.066410966
0.089386776 -0.06485133 0.075424835 0.09420413 -0.03950667 -0.05745029 -0.0213781 -0.07894364
0.04459787 -0.20449018 0.07370471 0.018324181 0.0032596774 -0.00021914887 -0.042757817 0.020352494
00000000: c737 dbbc 5d67 393d fa56 a73c 3d9e 7a3c
00000010: 53a0 2bbe d6eb 5f3d 3734 b93b 1300 bf3d
00000020: 3f87 003e 0676 1abe 3966 a3bd 3b06 e83c
00000030: abfa 353c c639 0c3c e3ec 2fbd 7efc d43d
00000040: e6e3 1cbe 943b 603d 316e 94bd e634 35be
00000050: 402b 7abd c960 e6bd 85f4 75bd 9563 0a3d
00000060: 8d3e c93c de82 71be 66b3 5a3d 6826 0a3e
00000070: 5fdb 90bc 60e4 0a3e 71b7 b83d fd36 143d
00000080: 8c4f 5cbd 845f 36bc 16e7 8abd e5ea 41bd
00000090: 903c 15bc e09a 803d feda 493c 6687 01bb
000000a0: 592d acbd af23 803d 208a 3abd de92 fb3c
000000b0: d0a3 2bbd ef75 a13d 5fb4 e8bd 8a00 8e3d
000000c0: 966e 543d 2567 b3bd 77a3 9dbd 8594 8ebd
000000d0: c522 babd 4216 b13d ce8a f03b e3f3 793d
000000e0: 37f2 98bd 0669 89bd 37da eb3d d3de 203d
000000f0: e3cb 953d f674 353d b7aa 173d bd81 2dbd
00000100: 7883 313e 881b 0e3d a244 1fbe 171c 32be
00000110: 61da 61bd 040c 5abd 961b 89be a503 263d
00000120: 8094 153d 1c8b 8e3d f691 c23d c97b 64bd
00000130: 3440 383c bdbc d9bc d60c 54bd 1f89 b03d
00000140: bb43 973d 6198 dfbd d9c7 8dbd 14ca f9ba
00000150: c76b 3d3d ae9e 9f3d 9b7e 5e3d f38a 1abd
00000160: 29e9 9c3d d3c0 bf3d 3c9c 72bc 2a4e 3d3d
00000170: 4dad 903d efe2 fd3d 7d17 43bb 1fc7 553d
00000180: 7919 f73c 4527 a53d 5951 7a3d 3aa0 c33c
00000190: 93ae a53d b9cb c93d 4559 60be 3b8b a1bd
000001a0: a498 a9bd a31c 8cbd b26f c73d 2b08 49bd
000001b0: d8a8 323d 6924 7bbe b0e9 26bc 1979 3ebd
000001c0: 4630 babd e68a e43d f1af c73d 9601 92bd
000001d0: ae2a 6a3d b963 f9bd aa0b 063e 49de 28bd
000001e0: 68e7 d4bc c892 83be aa1c 9c3d c2b0 c7bd
000001f0: e05d 89bb ff81 f9bd e76f 7cbd c0da 2bbd
00000200: 0dfe b83d 6926 5f3d ddd8 b0bd 0a26 c93d
00000210: bd67 273c b19b dfbc 25a6 cbbd 88d0 1d3d
00000220: 6d5b 833d 5f21 29bd 05c3 a23d 80bd 573b
00000230: 4ae9 8bbb 701a 5abd 3c27 83bd 82c6 6cbd
00000240: f23c e6bd a796 ad3c 8c1b 6e3c 5484 e13d
00000250: dc2e 083d f3b5 6f3d 8100 49ba fdfc 30bd
00000260: a164 a43d cb06 24bd aa3c 1e3d ab4d ae3d
00000270: 473c dd3c 770c a0bb fa76 ffbd 7752 72bc
00000280: 688d e9bc e6b6 94bd 395f e3bc 9c31 b43d
00000290: 3940 c13d d579 76bd e717 fbbc 64f3 c83d
000002a0: e948 953d 81e9 b6bd 7a3a 2d3b c05a d8bb
000002b0: b8a1 cb3d 3821 953d 7620 a93d d847 aa3d
000002c0: 3e93 393d 0c14 c8bc 23ce bcbc 16c1 dbbc
000002d0: c38d b33d 4ddb 0e3d 8250 b0bd 612f 68bd
000002e0: 94b1 a83d 885c cc3d c463 863d cb3a d83d
000002f0: 7693 aebd 2b39 623d 9c81 50bd 8eb1 b83d
00000300: 50cd 283d 8d61 5dbd acb4 54be a927 c1bd
00000310: 5fbc 233c bf5e 2f3c 0350 be3d 0582 703b
00000320: 7dc7 c9bd 2bca 7dbd 0a5a 903c ce26 17bd
00000330: d909 cd3c 4f5a bd3d f0c9 663d 4530 f8bd
00000340: ca0b f9bc d58d da3c a5ad 5f3d 786d fb3d
00000350: d293 21bd 5507 383d f3c8 293d 7de4 713d
00000360: 8e30 8ebb e09a 93bd 3193 8c3d 9cd5 76bd
00000370: c6e5 eb3d e089 bd3c c628 cd3b ad4a 0f3c
00000380: eddb d7bc e1e3 db3c 1be5 cfbd 1644 34bb
00000390: 6366 f9bc aa5f 423d 3e13 bb3d 41ee b13d
000003a0: 2c99 063c 7bde 6abd 510b d6bc f907 323d
000003b0: 0db4 ba3d e1af a2be cb2e cb3d 7902 88bd
000003c0: 6a10 b73d c6d0 84bd 5678 9a3d 18ee c03d
000003d0: bfd1 21bd ff50 6bbd 2021 afbc 34ad a1bd
000003e0: 42ac 363d e065 51be 7ff2 963d 981c 963c
000003f0: 50a0 553b 54cb 65b9 d222 2fbd 46ba a63c

conv3.lin_rel.bias f4 [128]
-0.08015828 0.04674534 0.017074022 0.04662117 -0.0036665522 0.053400572 -0.072549954 0.059647575
0.011372795 0.020636816 0.06521372 -0.024814852 0.030241825 0.017473495 -0.14755511 -0.03592758
0.0196818 -0.08303203 -0.054157507 -0.034523353 -0.05493209 0.014875617 -0.0706585 0.018955562
-0.03473999 0.046146274 -0.050548844 -0.092781 -0.048432365 0.09920341 0.07004295 0.041228797
0.082999155 0.03345696 -0.030407116 0.13468973 -0.02182028 0.13657488 0.10327982 -0.056784276
-0.008494821 0.097779594 -0.10254373 -0.08702641 -0.035892546 -0.055848155 -0.08459391 -0.077016406
0.09706918 -0.05910249 -0.03568469 0.05967424 -0.08241395 -0.010612203 -0.046838623 0.1606449
-0.060620353 -0.0004099512 -0.057844818 0.06828101 0.030742446 -0.06929015 -0.19048554 -0.11319144
0.013983618 0.055374503 0.05310567 -0.033426877 0.0008016013 0.13095187 0.028835788 -0.059034724
0.06916178 0.08113427 -0.05764341 0.088892974 0.027912635 0.010262821 0.054806963 0.1467633
-0.050737046 -0.057452403 0.23662776 -0.09387523 0.05839606 0.03935768 -0.0010326243 0.08443128
0.054041717 0.05820014 -0.20499827 -0.02823882 0.118276745 -0.07057906 -0.02995028 -0.028174827
0.13512364 -0.09254857 0.07519245 -0.009835224 0.03557158 0.07885132 -0.044830192 -0.04825225
-0.04797605 0.05137302 -0.072772615 0.05583298 -0.06663692 0.0561575 0.061758853 0.035272337
-0.021227375 -0.033351135 0.12836716 0.018846974 0.0028752217 -0.034679938 -0.06659233 -0.010849362
0.028230116 0.029059421 0.06155279 0.009480654 -0.012460141 -0.045817193 -0.025977977 -0.056426033
00000000: 062a a4bd 0b78 3f3d d2de 8b3c d7f5 3e3d
00000010: 8a4a 70bb 8fba 5a3d 1295 94bd 0451 743d
00000020: f654 3a3c 8a0e a93c c58e 853d 8448 cbbc
00000030: b4bd f73c 9324 8f3c b018 17be cc28 13bd
00000040: ba3b a13c b20c aabd 43d4 5dbd 5c68 0dbd
00000050: 7900 61bd dcb8 733c 67b5 90bd b248 9b3c
00000060: 854b 0ebd e003 3d3d 4e0c 4fbd f703 bebd
00000070: 0461 46bd 282b cb3d ae72 8f3d 87df 283d
00000080: 76fb a93d 2a0a 093d 5818 f9bc 1bec 093e
00000090: 72c0 b2bc 49da 0b3e 5f84 d33d a196 68bd
000000a0: dd2d 0bbc ab40 c83d 7202 d2bd e73a b2bd
000000b0: 1004 13bd 09c1 64bd 923f adbd c7ba 9dbd
000000c0: 35cc c63d 7415 72bd 1c2a 12bd fa6c 743d
000000d0: a5c8 a8bd cede 2dbc dbd9 3fbd 1980 243e
000000e0: 0c4d 78bd b8ee d6b9 b0ee 6cbd ead6 8b3d
000000f0: 95d7 fb3c ffe7 8dbd a40e 43be ead0 e7bd
00000100: 8b1b 653c 60d0 623d 5585 593d 9fea 08bd
00000110: 8d22 523a 3f18 063e 0839 ec3c 65ce 71bd
00000120: b1a4 8d3d b929 a63d 7f1b 6cbd 850d b63d
00000130: 0aa9 e43c 6425 283c 447d 603d 1e49 163e
00000140: a6d1 4fbd 3653 6bbd 8c4e 723e a841 c0bd
00000150: b530 6f3d 8535 213d 1f59 87ba 4fea ac3d
00000160: d95a 5d3d 4563 6e3d 11eb 51be 1955 e7bc
00000170: 143b f23d c18b 90bd 4a5a f5bc e5ce e6bc
00000180: da5d 0a3e 1b8a bdbd 80fe 993d eb23 21bc
00000190: 81b3 113d cd7c a13d dd9f 37bd 27a4 45bd
000001a0: 8982 44bd 846c 523d cf09 95bd 1fb1 643d
000001b0: f078 88bd 6805 663d daf6 7c3d ba79 103d
000001c0: 08e5 adbc 339b 08bd ae72 033e f864 9a3c
000001d0: 376e 3c3b 8d0c 0ebd 8f61 88bd 86c1 31bc
000001e0: d842 e73c 060e ee3c c71e 7c3d bf54 1b3c
000001f0: 9f25 4cbc cfaa 3bbd c4cf d4bc fc1e 67bd

conv3.lin_root.weight f4 [128, 128]
-0.21662645 0.043381736 0.03342051 -0.11065941 -0.09733015 -0.0464606 0.09782148 0.080393516
-0.02491002 -0.15159819 0.057244726 0.01255036 0.051697273 0.010224993 -0.17996643 -0.045732997
-0.14219888 -0.035980236 -0.03421278 -0.064488254 -0.111796305 -0.033577025 -0.015284081 -0.15966208
-0.19269525 -0.039641146 -0.05122686 -0.085271016 -0.085846454 0.07309289 0.0933773 -0.030374307
0.051402804 0.07678468 0.016571837 -0.08530427 0.035583112 0.04808034 -0.11368463 -0.11727417
-0.10980324 -0.03586404 0.06569678 -0.04939437 -0.06920048 0.008219225 -0.20034246 -0.02646519
-0.03800236 -0.1094396 -0.04194758 0.029365484 0.001722813 0.060720414 -0.0071815685 -0.024872221
-0.07894242 -0.051186576 -0.041471813 -0.08543157 -0.063149005 -0.041090973 0.046487108 -0.119573705
0.084915794 -0.00058866444 -0.12258488 0.02300942 0.051250607 0.066295825 -0.24808043 0.015160457
0.028351158 0.07381102 -0.037200768 0.027262956 0.15828867 0.038312603 0.032779206 0.038845055
-0.07043825 -0.11704701 0.014215405 -0.12427618 0.06862543 -0.025198322 -0.084827505 -0.16182207
0.18211952 -0.006346473 0.055497188 0.06712006 -0.015720611 0.002187064 -0.06351126 0.0735062
-0.10558108 0.07853588 0.042353 0.024297958 0.18991491 -0.031491864 0.013565348 -0.08036203
-0.16251315 0.0050623883 -0.07934607 -0.04911994 -0.09580898 -0.080901764 -0.16175647 0.029497057
-0.11170028 -0.0031570338 0.013630003 -0.12795143 -0.07937662 0.007856671 -0.036479775 -0.095891036
0.048027016 -0.3081833 -0.026787529 -0.007956256 -0.028680205 -0.1640926 0.01287296 -0.010159997
-0.06579939 -0.048714563 -0.016026713 0.1051708 0.024234341 -0.044818435 -0.01719041 0.019515289
-0.006479591 0.04146216 0.01975559 -0.03431243 -0.13252297 0.03912256 0.04801199 -0.040927384
-0.07927211 -0.0124748 -0.03917532 0.10121538 0.04249227 -0.017000522 -0.050698437 0.046651028
-0.015766267 0.03828316 -0.06202547 -0.05033767 0.014327782 -0.08173171 -0.007710653 0.026711864
-0.08390078 -0.057587966 -0.065827414 0.010004782 -0.034419242 -0.06954859 0.10724156 0.13566782
0.09695483 -0.05797088 -0.0011384409 0.10379608 -0.020123562 -0.055793263 0.0248201 0.047535893
-0.012675898 -0.016853644 -0.030459313 0.10985114 0.053079143 -0.08695904 -0.10327003 0.057966527
-0.03910057 -0.03490158 -0.044864025 0.040819462 -0.09634746 -0.015465257 -0.0055088457 0.040549777
-0.016285175 -0.063834466 -0.064117804 -0.14829396 0.008526351 0.07314558 0.16176966 0.00739453
-0.063174784 -0.06513093 0.10235225 0.031357266 -0.037630938 -0.039927866 -0.046874397 -0.017878179
0.086770795 0.028301079 0.087658145 0.08954265 -0.08715233 -0.009136609 -0.021376744 0.027528113
-0.00071653497 0.027459674 0.0011663912 -0.17067719 -0.0070939763 0.038733676 0.02526144 0.14003944
0.056115653 -0.004066599 0.02728052 -0.03602444 -0.0017129225 0.007461869 0.05610979 0.028947258
-0.050471462 -0.02767326 0.085991025 0.087688126 -0.045675892 -0.21956177 0.09802307 0.097613245
0.03073146 -0.030052459 -0.04821256 -0.03808626 0.103033215 0.0065933233 0.018376285 0.020846415
-0.10735193 0.037706584 0.09094226 0.024278704 0.047024056 0.05899462 -0.10186133 0.02862697
00000000: 53d3 5dbe 0cb1 313d f2e3 083d 67a1 e2bd
00000010: 0855 c7bd 784d 3ebd a156 c83d 5ba5 a43d
00000020: 1910 ccbc 8e3c 1bbe 7279 6a3d 06a0 4d3c
00000030: 85c0 533d bb86 273c 1f49 38be 8652 3bbd
00000040: 959c 11be 0360 13bd b322 0cbd 6b12 84bd
00000050: 76f5 e4bd 1088 09bd 156a 7abc 757e 23be
00000060: e751 45be c15e 22bd 42d3 51bd 92a2 aebd
00000070: 44d0 afbd bab1 953d 993c bf3d 8ad3 f8bc
00000080: bf8b 523d 4941 9d3d a9c1 873c 01b4 aebd
00000090: 99bf 113d e4ef 443d 7dd3 e8bd 712d f0bd
000000a0: 85e0 e0bd 2ce6 12bd 098c 863d c051 4abd
000000b0: fbb8 8dbd eea9 063c 9326 4dbe 87cd d8bc
000000c0: 5da8 1bbd de21 e0bd 3ad1 2bbd e28f f03c
000000d0: 03d0 e13a f8b5 783d 5d53 ebbb d4c0 cbbc
000000e0: 90ac a1bd 04a9 51bd 59de 29bd bff6 aebd
000000f0: 4454 81bd 024f 28bd 4469 3e3d 0fe3 f4bd
00000100: 55e8 ad3d 9a50 1aba c80d fbbd 407e bc3c
00000110: 28ec 513d 1bc6 873d cc08 7ebe 9163 783c
00000120: b040 e83c 3b2a 973d d55f 18bd 9056 df3c
00000130: 6d16 223e aded 1c3d 7d43 063d fe1b 1f3d
00000140: ee41 90bd 58b6 efbd bbe7 683c 8384 febd
00000150: 7d8b 8c3d b66c cebc 0bba adbd afb4 25be
00000160: 8a7d 3a3e 13f6 cfbb 0551 633d 3e76 893d
00000170: 83c8 80bc d854 0f3b 3112 82bd 6b8a 963d
00000180: e53a d8bd 6bd7 a03d 577a 2d3d 830c c73c
00000190: 0e79 423e 9dfd 00bd 3241 5e3c d994 a4bd
000001a0: d969 26be 64e2 a53b 3180 a2bd fd31 49bd
000001b0: 8037 c4bd d3af a5bd 7da3 25be d0a3 f13c
000001c0: 1ec3 e4bd 3de6 4ebb 6050 5f3c b305 03be
000001d0: 3690 a2bd 44b9 003c d16b 15bd 8562 c4bd
000001e0: fab7 443d 34ca 9dbe 8571 dbbc f55a 02bc
000001f0: c0f2 eabc e407 28be 1ce9 523c 1e76 26bc
00000200: d5c1 86bd ec88 47bd 744a 83bc ca63 d73d
00000210: 1987 c63c 8993 37bd e7d2 8cbc 87de 9f3c
00000220: c052 d4bb 3ad4 293d 7ad6 a13c 318b 0cbd
00000230: 1ab4 07be fa3e 203d 38a8 443d 79a3 27bd
00000240: 6a59 a2bd 1b63 4cbc 4d76 20bd 024a cf3d
00000250: 600c 2e3d ae44 8bbc 2aa9 4fbd 2615 3f3d
00000260: 4228 81bc cece 1c3d 6b0e 7ebd df2e 4ebd
00000270: 13bf 6a3c f462 a7bd a5a9 fcbb d7d2 da3c
00000280: 2cd4 abbd 5ce1 6bbd 86d0 86bd 19eb 233c
00000290: 31fb 0cbd 7e6f 8ebd 77a1 db3d 81ec 0a3e
000002a0: 4190 c63d e072 6dbd bd37 95ba 0a93 d43d
000002b0: 2bda a4bc 7a87 64bd 8653 cb3c ffb4 423d
000002c0: 92ae 4fbc a710 8abc cf85 f9bc a2f9 e03d
000002d0: 8469 593d 9517 b2bd 3d7f d3bd 4f6e 6d3d
000002e0: eb27 20bd f6f4 0ebd 57c3 37bd 4f32 273d
000002f0: d151 c5bd fd61 7dbc 8c83 b4bb 8617 263d
00000300: 7d68 85bc a5bb 82bd 3250 83bd 5fda 17be
00000310: 1cb2 0b3c 5acd 953d f2a6 253e d04d f23b
00000320: c861 81bd 5d63 85bd 0e9e d13d 7a70 003d
00000330: e622 1abd 678b 23bd 5eff 3fbd 4275 92bc
00000340: e3b4 b13d aad7 e73c 1d86 b33d 2362 b73d
00000350: ec7c b2bd b7b1 15bc 481e afbc a382 e13c
00000360: d9d5 3bba 1cf3 e03c 98e1 983a 00c6 2ebe
00000370: 9674 e8bb 34a7 1e3d 14f1 ce3c 8066 0f3e
00000380: 87d9 653d 1b41 85bb 667b df3c 5d8e 13bd
00000390: 2484 e0ba b282 f43b 61d3 653d cd22 ed3c
000003a0: 2abb 4ebd 08b3 e2bc 101c b03d d595 b33d
000003b0: a516 3bbd cdd4 60be 52c0 c83d 74e9 c73d
000003c0: 8bc0 fb3c 9330 f6bc 897a 45bd 5700 1cbd
000003d0: 1403 d33d ce0c d83b dd89 963c 1ac6 aa3c
000003e0: 54db dbbd 3872 1a3d f03f ba3d 22e4 c63c
000003f0: 4c9c 403d 58a4 713d ac9c d0bd 1b83 ea3c
